{"weightsManifest": [{"paths": ["group1-shard1of7.bin", "group1-shard2of7.bin", "group1-shard3of7.bin", "group1-shard4of7.bin", "group1-shard5of7.bin", "group1-shard6of7.bin", "group1-shard7of7.bin"], "weights": [{"dtype": "float32", "shape": [1, 1, 32, 1], "name": "conv2d_1/kernel"}, {"dtype": "float32", "shape": [1], "name": "conv2d_1/bias"}, {"dtype": "float32", "shape": [2, 2, 512, 1024], "name": "conv2d_transpose_1/kernel"}, {"dtype": "float32", "shape": [512], "name": "conv2d_transpose_1/bias"}, {"dtype": "float32", "shape": [2, 2, 256, 512], "name": "conv2d_transpose_2/kernel"}, {"dtype": "float32", "shape": [256], "name": "conv2d_transpose_2/bias"}, {"dtype": "float32", "shape": [2, 2, 128, 256], "name": "conv2d_transpose_3/kernel"}, {"dtype": "float32", "shape": [128], "name": "conv2d_transpose_3/bias"}, {"dtype": "float32", "shape": [2, 2, 64, 128], "name": "conv2d_transpose_4/kernel"}, {"dtype": "float32", "shape": [64], "name": "conv2d_transpose_4/bias"}, {"dtype": "float32", "shape": [3, 3, 3, 32], "name": "conv_0/kernel"}, {"dtype": "float32", "shape": [32], "name": "conv_0_bn/gamma"}, {"dtype": "float32", "shape": [32], "name": "conv_0_bn/beta"}, {"dtype": "float32", "shape": [32], "name": "conv_0_bn/moving_mean"}, {"dtype": "float32", "shape": [32], "name": "conv_0_bn/moving_variance"}, {"dtype": "float32", "shape": [3, 3, 96, 32], "name": "conv_18/kernel"}, {"dtype": "float32", "shape": [32], "name": "conv_18_bn/gamma"}, {"dtype": "float32", "shape": [32], "name": "conv_18_bn/beta"}, {"dtype": "float32", "shape": [32], "name": "conv_18_bn/moving_mean"}, {"dtype": "float32", "shape": [32], "name": "conv_18_bn/moving_variance"}, {"dtype": "float32", "shape": [3, 3, 32, 1], "name": "conv_dw_1/depthwise_kernel"}, {"dtype": "float32", "shape": [3, 3, 512, 1], "name": "conv_dw_10/depthwise_kernel"}, {"dtype": "float32", "shape": [512], "name": "conv_dw_10_bn/gamma"}, {"dtype": "float32", "shape": [512], "name": "conv_dw_10_bn/beta"}, {"dtype": "float32", "shape": [512], "name": "conv_dw_10_bn/moving_mean"}, {"dtype": "float32", "shape": [512], "name": "conv_dw_10_bn/moving_variance"}, {"dtype": "float32", "shape": [3, 3, 512, 1], "name": "conv_dw_11/depthwise_kernel"}, {"dtype": "float32", "shape": [512], "name": "conv_dw_11_bn/gamma"}, {"dtype": "float32", "shape": [512], "name": "conv_dw_11_bn/beta"}, {"dtype": "float32", "shape": [512], "name": "conv_dw_11_bn/moving_mean"}, {"dtype": "float32", "shape": [512], "name": "conv_dw_11_bn/moving_variance"}, {"dtype": "float32", "shape": [3, 3, 512, 1], "name": "conv_dw_12/depthwise_kernel"}, {"dtype": "float32", "shape": [512], "name": "conv_dw_12_bn/gamma"}, {"dtype": "float32", "shape": [512], "name": "conv_dw_12_bn/beta"}, {"dtype": "float32", "shape": [512], "name": "conv_dw_12_bn/moving_mean"}, {"dtype": "float32", "shape": [512], "name": "conv_dw_12_bn/moving_variance"}, {"dtype": "float32", "shape": [3, 3, 1024, 1], "name": "conv_dw_13/depthwise_kernel"}, {"dtype": "float32", "shape": [1024], "name": "conv_dw_13_bn/gamma"}, {"dtype": "float32", "shape": [1024], "name": "conv_dw_13_bn/beta"}, {"dtype": "float32", "shape": [1024], "name": "conv_dw_13_bn/moving_mean"}, {"dtype": "float32", "shape": [1024], "name": "conv_dw_13_bn/moving_variance"}, {"dtype": "float32", "shape": [3, 3, 1024, 1], "name": "conv_dw_14/depthwise_kernel"}, {"dtype": "float32", "shape": [1024], "name": "conv_dw_14_bn/gamma"}, {"dtype": "float32", "shape": [1024], "name": "conv_dw_14_bn/beta"}, {"dtype": "float32", "shape": [1024], "name": "conv_dw_14_bn/moving_mean"}, {"dtype": "float32", "shape": [1024], "name": "conv_dw_14_bn/moving_variance"}, {"dtype": "float32", "shape": [3, 3, 512, 1], "name": "conv_dw_15/depthwise_kernel"}, {"dtype": "float32", "shape": [512], "name": "conv_dw_15_bn/gamma"}, {"dtype": "float32", "shape": [512], "name": "conv_dw_15_bn/beta"}, {"dtype": "float32", "shape": [512], "name": "conv_dw_15_bn/moving_mean"}, {"dtype": "float32", "shape": [512], "name": "conv_dw_15_bn/moving_variance"}, {"dtype": "float32", "shape": [3, 3, 256, 1], "name": "conv_dw_16/depthwise_kernel"}, {"dtype": "float32", "shape": [256], "name": "conv_dw_16_bn/gamma"}, {"dtype": "float32", "shape": [256], "name": "conv_dw_16_bn/beta"}, {"dtype": "float32", "shape": [256], "name": "conv_dw_16_bn/moving_mean"}, {"dtype": "float32", "shape": [256], "name": "conv_dw_16_bn/moving_variance"}, {"dtype": "float32", "shape": [3, 3, 128, 1], "name": "conv_dw_17/depthwise_kernel"}, {"dtype": "float32", "shape": [128], "name": "conv_dw_17_bn/gamma"}, {"dtype": "float32", "shape": [128], "name": "conv_dw_17_bn/beta"}, {"dtype": "float32", "shape": [128], "name": "conv_dw_17_bn/moving_mean"}, {"dtype": "float32", "shape": [128], "name": "conv_dw_17_bn/moving_variance"}, {"dtype": "float32", "shape": [32], "name": "conv_dw_1_bn/gamma"}, {"dtype": "float32", "shape": [32], "name": "conv_dw_1_bn/beta"}, {"dtype": "float32", "shape": [32], "name": "conv_dw_1_bn/moving_mean"}, {"dtype": "float32", "shape": [32], "name": "conv_dw_1_bn/moving_variance"}, {"dtype": "float32", "shape": [3, 3, 64, 1], "name": "conv_dw_2/depthwise_kernel"}, {"dtype": "float32", "shape": [64], "name": "conv_dw_2_bn/gamma"}, {"dtype": "float32", "shape": [64], "name": "conv_dw_2_bn/beta"}, {"dtype": "float32", "shape": [64], "name": "conv_dw_2_bn/moving_mean"}, {"dtype": "float32", "shape": [64], "name": "conv_dw_2_bn/moving_variance"}, {"dtype": "float32", "shape": [3, 3, 128, 1], "name": "conv_dw_3/depthwise_kernel"}, {"dtype": "float32", "shape": [128], "name": "conv_dw_3_bn/gamma"}, {"dtype": "float32", "shape": [128], "name": "conv_dw_3_bn/beta"}, {"dtype": "float32", "shape": [128], "name": "conv_dw_3_bn/moving_mean"}, {"dtype": "float32", "shape": [128], "name": "conv_dw_3_bn/moving_variance"}, {"dtype": "float32", "shape": [3, 3, 128, 1], "name": "conv_dw_4/depthwise_kernel"}, {"dtype": "float32", "shape": [128], "name": "conv_dw_4_bn/gamma"}, {"dtype": "float32", "shape": [128], "name": "conv_dw_4_bn/beta"}, {"dtype": "float32", "shape": [128], "name": "conv_dw_4_bn/moving_mean"}, {"dtype": "float32", "shape": [128], "name": "conv_dw_4_bn/moving_variance"}, {"dtype": "float32", "shape": [3, 3, 256, 1], "name": "conv_dw_5/depthwise_kernel"}, {"dtype": "float32", "shape": [256], "name": "conv_dw_5_bn/gamma"}, {"dtype": "float32", "shape": [256], "name": "conv_dw_5_bn/beta"}, {"dtype": "float32", "shape": [256], "name": "conv_dw_5_bn/moving_mean"}, {"dtype": "float32", "shape": [256], "name": "conv_dw_5_bn/moving_variance"}, {"dtype": "float32", "shape": [3, 3, 256, 1], "name": "conv_dw_6/depthwise_kernel"}, {"dtype": "float32", "shape": [256], "name": "conv_dw_6_bn/gamma"}, {"dtype": "float32", "shape": [256], "name": "conv_dw_6_bn/beta"}, {"dtype": "float32", "shape": [256], "name": "conv_dw_6_bn/moving_mean"}, {"dtype": "float32", "shape": [256], "name": "conv_dw_6_bn/moving_variance"}, {"dtype": "float32", "shape": [3, 3, 512, 1], "name": "conv_dw_7/depthwise_kernel"}, {"dtype": "float32", "shape": [512], "name": "conv_dw_7_bn/gamma"}, {"dtype": "float32", "shape": [512], "name": "conv_dw_7_bn/beta"}, {"dtype": "float32", "shape": [512], "name": "conv_dw_7_bn/moving_mean"}, {"dtype": "float32", "shape": [512], "name": "conv_dw_7_bn/moving_variance"}, {"dtype": "float32", "shape": [3, 3, 512, 1], "name": "conv_dw_8/depthwise_kernel"}, {"dtype": "float32", "shape": [512], "name": "conv_dw_8_bn/gamma"}, {"dtype": "float32", "shape": [512], "name": "conv_dw_8_bn/beta"}, {"dtype": "float32", "shape": [512], "name": "conv_dw_8_bn/moving_mean"}, {"dtype": "float32", "shape": [512], "name": "conv_dw_8_bn/moving_variance"}, {"dtype": "float32", "shape": [3, 3, 512, 1], "name": "conv_dw_9/depthwise_kernel"}, {"dtype": "float32", "shape": [512], "name": "conv_dw_9_bn/gamma"}, {"dtype": "float32", "shape": [512], "name": "conv_dw_9_bn/beta"}, {"dtype": "float32", "shape": [512], "name": "conv_dw_9_bn/moving_mean"}, {"dtype": "float32", "shape": [512], "name": "conv_dw_9_bn/moving_variance"}, {"dtype": "float32", "shape": [1, 1, 32, 64], "name": "conv_pw_1/kernel"}, {"dtype": "float32", "shape": [1, 1, 512, 512], "name": "conv_pw_10/kernel"}, {"dtype": "float32", "shape": [512], "name": "conv_pw_10_bn/gamma"}, {"dtype": "float32", "shape": [512], "name": "conv_pw_10_bn/beta"}, {"dtype": "float32", "shape": [512], "name": "conv_pw_10_bn/moving_mean"}, {"dtype": "float32", "shape": [512], "name": "conv_pw_10_bn/moving_variance"}, {"dtype": "float32", "shape": [1, 1, 512, 512], "name": "conv_pw_11/kernel"}, {"dtype": "float32", "shape": [512], "name": "conv_pw_11_bn/gamma"}, {"dtype": "float32", "shape": [512], "name": "conv_pw_11_bn/beta"}, {"dtype": "float32", "shape": [512], "name": "conv_pw_11_bn/moving_mean"}, {"dtype": "float32", "shape": [512], "name": "conv_pw_11_bn/moving_variance"}, {"dtype": "float32", "shape": [1, 1, 512, 1024], "name": "conv_pw_12/kernel"}, {"dtype": "float32", "shape": [1024], "name": "conv_pw_12_bn/gamma"}, {"dtype": "float32", "shape": [1024], "name": "conv_pw_12_bn/beta"}, {"dtype": "float32", "shape": [1024], "name": "conv_pw_12_bn/moving_mean"}, {"dtype": "float32", "shape": [1024], "name": "conv_pw_12_bn/moving_variance"}, {"dtype": "float32", "shape": [1, 1, 1024, 1024], "name": "conv_pw_13/kernel"}, {"dtype": "float32", "shape": [1024], "name": "conv_pw_13_bn/gamma"}, {"dtype": "float32", "shape": [1024], "name": "conv_pw_13_bn/beta"}, {"dtype": "float32", "shape": [1024], "name": "conv_pw_13_bn/moving_mean"}, {"dtype": "float32", "shape": [1024], "name": "conv_pw_13_bn/moving_variance"}, {"dtype": "float32", "shape": [1, 1, 1024, 512], "name": "conv_pw_14/kernel"}, {"dtype": "float32", "shape": [512], "name": "conv_pw_14_bn/gamma"}, {"dtype": "float32", "shape": [512], "name": "conv_pw_14_bn/beta"}, {"dtype": "float32", "shape": [512], "name": "conv_pw_14_bn/moving_mean"}, {"dtype": "float32", "shape": [512], "name": "conv_pw_14_bn/moving_variance"}, {"dtype": "float32", "shape": [1, 1, 512, 256], "name": "conv_pw_15/kernel"}, {"dtype": "float32", "shape": [256], "name": "conv_pw_15_bn/gamma"}, {"dtype": "float32", "shape": [256], "name": "conv_pw_15_bn/beta"}, {"dtype": "float32", "shape": [256], "name": "conv_pw_15_bn/moving_mean"}, {"dtype": "float32", "shape": [256], "name": "conv_pw_15_bn/moving_variance"}, {"dtype": "float32", "shape": [1, 1, 256, 128], "name": "conv_pw_16/kernel"}, {"dtype": "float32", "shape": [128], "name": "conv_pw_16_bn/gamma"}, {"dtype": "float32", "shape": [128], "name": "conv_pw_16_bn/beta"}, {"dtype": "float32", "shape": [128], "name": "conv_pw_16_bn/moving_mean"}, {"dtype": "float32", "shape": [128], "name": "conv_pw_16_bn/moving_variance"}, {"dtype": "float32", "shape": [1, 1, 128, 64], "name": "conv_pw_17/kernel"}, {"dtype": "float32", "shape": [64], "name": "conv_pw_17_bn/gamma"}, {"dtype": "float32", "shape": [64], "name": "conv_pw_17_bn/beta"}, {"dtype": "float32", "shape": [64], "name": "conv_pw_17_bn/moving_mean"}, {"dtype": "float32", "shape": [64], "name": "conv_pw_17_bn/moving_variance"}, {"dtype": "float32", "shape": [64], "name": "conv_pw_1_bn/gamma"}, {"dtype": "float32", "shape": [64], "name": "conv_pw_1_bn/beta"}, {"dtype": "float32", "shape": [64], "name": "conv_pw_1_bn/moving_mean"}, {"dtype": "float32", "shape": [64], "name": "conv_pw_1_bn/moving_variance"}, {"dtype": "float32", "shape": [1, 1, 64, 128], "name": "conv_pw_2/kernel"}, {"dtype": "float32", "shape": [128], "name": "conv_pw_2_bn/gamma"}, {"dtype": "float32", "shape": [128], "name": "conv_pw_2_bn/beta"}, {"dtype": "float32", "shape": [128], "name": "conv_pw_2_bn/moving_mean"}, {"dtype": "float32", "shape": [128], "name": "conv_pw_2_bn/moving_variance"}, {"dtype": "float32", "shape": [1, 1, 128, 128], "name": "conv_pw_3/kernel"}, {"dtype": "float32", "shape": [128], "name": "conv_pw_3_bn/gamma"}, {"dtype": "float32", "shape": [128], "name": "conv_pw_3_bn/beta"}, {"dtype": "float32", "shape": [128], "name": "conv_pw_3_bn/moving_mean"}, {"dtype": "float32", "shape": [128], "name": "conv_pw_3_bn/moving_variance"}, {"dtype": "float32", "shape": [1, 1, 128, 256], "name": "conv_pw_4/kernel"}, {"dtype": "float32", "shape": [256], "name": "conv_pw_4_bn/gamma"}, {"dtype": "float32", "shape": [256], "name": "conv_pw_4_bn/beta"}, {"dtype": "float32", "shape": [256], "name": "conv_pw_4_bn/moving_mean"}, {"dtype": "float32", "shape": [256], "name": "conv_pw_4_bn/moving_variance"}, {"dtype": "float32", "shape": [1, 1, 256, 256], "name": "conv_pw_5/kernel"}, {"dtype": "float32", "shape": [256], "name": "conv_pw_5_bn/gamma"}, {"dtype": "float32", "shape": [256], "name": "conv_pw_5_bn/beta"}, {"dtype": "float32", "shape": [256], "name": "conv_pw_5_bn/moving_mean"}, {"dtype": "float32", "shape": [256], "name": "conv_pw_5_bn/moving_variance"}, {"dtype": "float32", "shape": [1, 1, 256, 512], "name": "conv_pw_6/kernel"}, {"dtype": "float32", "shape": [512], "name": "conv_pw_6_bn/gamma"}, {"dtype": "float32", "shape": [512], "name": "conv_pw_6_bn/beta"}, {"dtype": "float32", "shape": [512], "name": "conv_pw_6_bn/moving_mean"}, {"dtype": "float32", "shape": [512], "name": "conv_pw_6_bn/moving_variance"}, {"dtype": "float32", "shape": [1, 1, 512, 512], "name": "conv_pw_7/kernel"}, {"dtype": "float32", "shape": [512], "name": "conv_pw_7_bn/gamma"}, {"dtype": "float32", "shape": [512], "name": "conv_pw_7_bn/beta"}, {"dtype": "float32", "shape": [512], "name": "conv_pw_7_bn/moving_mean"}, {"dtype": "float32", "shape": [512], "name": "conv_pw_7_bn/moving_variance"}, {"dtype": "float32", "shape": [1, 1, 512, 512], "name": "conv_pw_8/kernel"}, {"dtype": "float32", "shape": [512], "name": "conv_pw_8_bn/gamma"}, {"dtype": "float32", "shape": [512], "name": "conv_pw_8_bn/beta"}, {"dtype": "float32", "shape": [512], "name": "conv_pw_8_bn/moving_mean"}, {"dtype": "float32", "shape": [512], "name": "conv_pw_8_bn/moving_variance"}, {"dtype": "float32", "shape": [1, 1, 512, 512], "name": "conv_pw_9/kernel"}, {"dtype": "float32", "shape": [512], "name": "conv_pw_9_bn/gamma"}, {"dtype": "float32", "shape": [512], "name": "conv_pw_9_bn/beta"}, {"dtype": "float32", "shape": [512], "name": "conv_pw_9_bn/moving_mean"}, {"dtype": "float32", "shape": [512], "name": "conv_pw_9_bn/moving_variance"}]}], "modelTopology": {"training_config": {"metrics": [], "loss": "binary_crossentropy", "optimizer_config": {"class_name": "Adam", "config": {"beta_1": 0.8999999761581421, "beta_2": 0.9990000128746033, "decay": 0.0, "epsilon": 1e-07, "amsgrad": false, "lr": 0.0010000000474974513}}, "sample_weight_mode": null, "loss_weights": null}, "keras_version": "2.2.4", "model_config": {"class_name": "Model", "config": {"layers": [{"class_name": "InputLayer", "inbound_nodes": [], "config": {"dtype": "float32", "batch_input_shape": [null, 224, 224, 3], "name": "input_1", "sparse": false}, "name": "input_1"}, {"class_name": "Conv2D", "inbound_nodes": [[["input_1", 0, 0, {}]]], "config": {"kernel_initializer": {"class_name": "VarianceScaling", "config": {"distribution": "uniform", "scale": 1.0, "seed": null, "mode": "fan_avg"}}, "name": "conv_0", "kernel_constraint": null, "bias_regularizer": null, "bias_constraint": null, "activation": "linear", "trainable": true, "data_format": "channels_last", "padding": "same", "strides": [2, 2], "dilation_rate": [1, 1], "kernel_regularizer": null, "filters": 32, "bias_initializer": {"class_name": "Zeros", "config": {}}, "use_bias": false, "activity_regularizer": null, "kernel_size": [3, 3]}, "name": "conv_0"}, {"class_name": "BatchNormalization", "inbound_nodes": [[["conv_0", 0, 0, {}]]], "config": {"gamma_initializer": {"class_name": "Ones", "config": {}}, "moving_mean_initializer": {"class_name": "Zeros", "config": {}}, "name": "conv_0_bn", "epsilon": 0.001, "trainable": true, "center": true, "moving_variance_initializer": {"class_name": "Ones", "config": {}}, "beta_initializer": {"class_name": "Zeros", "config": {}}, "scale": true, "gamma_regularizer": null, "gamma_constraint": null, "beta_constraint": null, "beta_regularizer": null, "momentum": 0.99, "axis": -1}, "name": "conv_0_bn"}, {"class_name": "Activation", "inbound_nodes": [[["conv_0_bn", 0, 0, {}]]], "config": {"activation": "relu6", "trainable": true, "name": "conv_0_relu"}, "name": "conv_0_relu"}, {"class_name": "DepthwiseConv2D", "inbound_nodes": [[["conv_0_relu", 0, 0, {}]]], "config": {"padding": "same", "depth_multiplier": 1, "name": "conv_dw_1", "bias_regularizer": null, "bias_constraint": null, "activation": "linear", "trainable": true, "data_format": "channels_last", "depthwise_constraint": null, "strides": [1, 1], "dilation_rate": [1, 1], "depthwise_initializer": {"class_name": "VarianceScaling", "config": {"distribution": "uniform", "scale": 1.0, "seed": null, "mode": "fan_avg"}}, "bias_initializer": {"class_name": "Zeros", "config": {}}, "depthwise_regularizer": null, "use_bias": false, "activity_regularizer": null, "kernel_size": [3, 3]}, "name": "conv_dw_1"}, {"class_name": "BatchNormalization", "inbound_nodes": [[["conv_dw_1", 0, 0, {}]]], "config": {"gamma_initializer": {"class_name": "Ones", "config": {}}, "moving_mean_initializer": {"class_name": "Zeros", "config": {}}, "name": "conv_dw_1_bn", "epsilon": 0.001, "trainable": true, "center": true, "moving_variance_initializer": {"class_name": "Ones", "config": {}}, "beta_initializer": {"class_name": "Zeros", "config": {}}, "scale": true, "gamma_regularizer": null, "gamma_constraint": null, "beta_constraint": null, "beta_regularizer": null, "momentum": 0.99, "axis": -1}, "name": "conv_dw_1_bn"}, {"class_name": "Activation", "inbound_nodes": [[["conv_dw_1_bn", 0, 0, {}]]], "config": {"activation": "relu6", "trainable": true, "name": "conv_dw_1_relu"}, "name": "conv_dw_1_relu"}, {"class_name": "Conv2D", "inbound_nodes": [[["conv_dw_1_relu", 0, 0, {}]]], "config": {"kernel_initializer": {"class_name": "VarianceScaling", "config": {"distribution": "uniform", "scale": 1.0, "seed": null, "mode": "fan_avg"}}, "name": "conv_pw_1", "kernel_constraint": null, "bias_regularizer": null, "bias_constraint": null, "activation": "linear", "trainable": true, "data_format": "channels_last", "padding": "same", "strides": [1, 1], "dilation_rate": [1, 1], "kernel_regularizer": null, "filters": 64, "bias_initializer": {"class_name": "Zeros", "config": {}}, "use_bias": false, "activity_regularizer": null, "kernel_size": [1, 1]}, "name": "conv_pw_1"}, {"class_name": "BatchNormalization", "inbound_nodes": [[["conv_pw_1", 0, 0, {}]]], "config": {"gamma_initializer": {"class_name": "Ones", "config": {}}, "moving_mean_initializer": {"class_name": "Zeros", "config": {}}, "name": "conv_pw_1_bn", "epsilon": 0.001, "trainable": true, "center": true, "moving_variance_initializer": {"class_name": "Ones", "config": {}}, "beta_initializer": {"class_name": "Zeros", "config": {}}, "scale": true, "gamma_regularizer": null, "gamma_constraint": null, "beta_constraint": null, "beta_regularizer": null, "momentum": 0.99, "axis": -1}, "name": "conv_pw_1_bn"}, {"class_name": "Activation", "inbound_nodes": [[["conv_pw_1_bn", 0, 0, {}]]], "config": {"activation": "relu6", "trainable": true, "name": "conv_pw_1_relu"}, "name": "conv_pw_1_relu"}, {"class_name": "DepthwiseConv2D", "inbound_nodes": [[["conv_pw_1_relu", 0, 0, {}]]], "config": {"padding": "same", "depth_multiplier": 1, "name": "conv_dw_2", "bias_regularizer": null, "bias_constraint": null, "activation": "linear", "trainable": true, "data_format": "channels_last", "depthwise_constraint": null, "strides": [2, 2], "dilation_rate": [1, 1], "depthwise_initializer": {"class_name": "VarianceScaling", "config": {"distribution": "uniform", "scale": 1.0, "seed": null, "mode": "fan_avg"}}, "bias_initializer": {"class_name": "Zeros", "config": {}}, "depthwise_regularizer": null, "use_bias": false, "activity_regularizer": null, "kernel_size": [3, 3]}, "name": "conv_dw_2"}, {"class_name": "BatchNormalization", "inbound_nodes": [[["conv_dw_2", 0, 0, {}]]], "config": {"gamma_initializer": {"class_name": "Ones", "config": {}}, "moving_mean_initializer": {"class_name": "Zeros", "config": {}}, "name": "conv_dw_2_bn", "epsilon": 0.001, "trainable": true, "center": true, "moving_variance_initializer": {"class_name": "Ones", "config": {}}, "beta_initializer": {"class_name": "Zeros", "config": {}}, "scale": true, "gamma_regularizer": null, "gamma_constraint": null, "beta_constraint": null, "beta_regularizer": null, "momentum": 0.99, "axis": -1}, "name": "conv_dw_2_bn"}, {"class_name": "Activation", "inbound_nodes": [[["conv_dw_2_bn", 0, 0, {}]]], "config": {"activation": "relu6", "trainable": true, "name": "conv_dw_2_relu"}, "name": "conv_dw_2_relu"}, {"class_name": "Conv2D", "inbound_nodes": [[["conv_dw_2_relu", 0, 0, {}]]], "config": {"kernel_initializer": {"class_name": "VarianceScaling", "config": {"distribution": "uniform", "scale": 1.0, "seed": null, "mode": "fan_avg"}}, "name": "conv_pw_2", "kernel_constraint": null, "bias_regularizer": null, "bias_constraint": null, "activation": "linear", "trainable": true, "data_format": "channels_last", "padding": "same", "strides": [1, 1], "dilation_rate": [1, 1], "kernel_regularizer": null, "filters": 128, "bias_initializer": {"class_name": "Zeros", "config": {}}, "use_bias": false, "activity_regularizer": null, "kernel_size": [1, 1]}, "name": "conv_pw_2"}, {"class_name": "BatchNormalization", "inbound_nodes": [[["conv_pw_2", 0, 0, {}]]], "config": {"gamma_initializer": {"class_name": "Ones", "config": {}}, "moving_mean_initializer": {"class_name": "Zeros", "config": {}}, "name": "conv_pw_2_bn", "epsilon": 0.001, "trainable": true, "center": true, "moving_variance_initializer": {"class_name": "Ones", "config": {}}, "beta_initializer": {"class_name": "Zeros", "config": {}}, "scale": true, "gamma_regularizer": null, "gamma_constraint": null, "beta_constraint": null, "beta_regularizer": null, "momentum": 0.99, "axis": -1}, "name": "conv_pw_2_bn"}, {"class_name": "Activation", "inbound_nodes": [[["conv_pw_2_bn", 0, 0, {}]]], "config": {"activation": "relu6", "trainable": true, "name": "conv_pw_2_relu"}, "name": "conv_pw_2_relu"}, {"class_name": "DepthwiseConv2D", "inbound_nodes": [[["conv_pw_2_relu", 0, 0, {}]]], "config": {"padding": "same", "depth_multiplier": 1, "name": "conv_dw_3", "bias_regularizer": null, "bias_constraint": null, "activation": "linear", "trainable": true, "data_format": "channels_last", "depthwise_constraint": null, "strides": [1, 1], "dilation_rate": [1, 1], "depthwise_initializer": {"class_name": "VarianceScaling", "config": {"distribution": "uniform", "scale": 1.0, "seed": null, "mode": "fan_avg"}}, "bias_initializer": {"class_name": "Zeros", "config": {}}, "depthwise_regularizer": null, "use_bias": false, "activity_regularizer": null, "kernel_size": [3, 3]}, "name": "conv_dw_3"}, {"class_name": "BatchNormalization", "inbound_nodes": [[["conv_dw_3", 0, 0, {}]]], "config": {"gamma_initializer": {"class_name": "Ones", "config": {}}, "moving_mean_initializer": {"class_name": "Zeros", "config": {}}, "name": "conv_dw_3_bn", "epsilon": 0.001, "trainable": true, "center": true, "moving_variance_initializer": {"class_name": "Ones", "config": {}}, "beta_initializer": {"class_name": "Zeros", "config": {}}, "scale": true, "gamma_regularizer": null, "gamma_constraint": null, "beta_constraint": null, "beta_regularizer": null, "momentum": 0.99, "axis": -1}, "name": "conv_dw_3_bn"}, {"class_name": "Activation", "inbound_nodes": [[["conv_dw_3_bn", 0, 0, {}]]], "config": {"activation": "relu6", "trainable": true, "name": "conv_dw_3_relu"}, "name": "conv_dw_3_relu"}, {"class_name": "Conv2D", "inbound_nodes": [[["conv_dw_3_relu", 0, 0, {}]]], "config": {"kernel_initializer": {"class_name": "VarianceScaling", "config": {"distribution": "uniform", "scale": 1.0, "seed": null, "mode": "fan_avg"}}, "name": "conv_pw_3", "kernel_constraint": null, "bias_regularizer": null, "bias_constraint": null, "activation": "linear", "trainable": true, "data_format": "channels_last", "padding": "same", "strides": [1, 1], "dilation_rate": [1, 1], "kernel_regularizer": null, "filters": 128, "bias_initializer": {"class_name": "Zeros", "config": {}}, "use_bias": false, "activity_regularizer": null, "kernel_size": [1, 1]}, "name": "conv_pw_3"}, {"class_name": "BatchNormalization", "inbound_nodes": [[["conv_pw_3", 0, 0, {}]]], "config": {"gamma_initializer": {"class_name": "Ones", "config": {}}, "moving_mean_initializer": {"class_name": "Zeros", "config": {}}, "name": "conv_pw_3_bn", "epsilon": 0.001, "trainable": true, "center": true, "moving_variance_initializer": {"class_name": "Ones", "config": {}}, "beta_initializer": {"class_name": "Zeros", "config": {}}, "scale": true, "gamma_regularizer": null, "gamma_constraint": null, "beta_constraint": null, "beta_regularizer": null, "momentum": 0.99, "axis": -1}, "name": "conv_pw_3_bn"}, {"class_name": "Activation", "inbound_nodes": [[["conv_pw_3_bn", 0, 0, {}]]], "config": {"activation": "relu6", "trainable": true, "name": "conv_pw_3_relu"}, "name": "conv_pw_3_relu"}, {"class_name": "DepthwiseConv2D", "inbound_nodes": [[["conv_pw_3_relu", 0, 0, {}]]], "config": {"padding": "same", "depth_multiplier": 1, "name": "conv_dw_4", "bias_regularizer": null, "bias_constraint": null, "activation": "linear", "trainable": true, "data_format": "channels_last", "depthwise_constraint": null, "strides": [2, 2], "dilation_rate": [1, 1], "depthwise_initializer": {"class_name": "VarianceScaling", "config": {"distribution": "uniform", "scale": 1.0, "seed": null, "mode": "fan_avg"}}, "bias_initializer": {"class_name": "Zeros", "config": {}}, "depthwise_regularizer": null, "use_bias": false, "activity_regularizer": null, "kernel_size": [3, 3]}, "name": "conv_dw_4"}, {"class_name": "BatchNormalization", "inbound_nodes": [[["conv_dw_4", 0, 0, {}]]], "config": {"gamma_initializer": {"class_name": "Ones", "config": {}}, "moving_mean_initializer": {"class_name": "Zeros", "config": {}}, "name": "conv_dw_4_bn", "epsilon": 0.001, "trainable": true, "center": true, "moving_variance_initializer": {"class_name": "Ones", "config": {}}, "beta_initializer": {"class_name": "Zeros", "config": {}}, "scale": true, "gamma_regularizer": null, "gamma_constraint": null, "beta_constraint": null, "beta_regularizer": null, "momentum": 0.99, "axis": -1}, "name": "conv_dw_4_bn"}, {"class_name": "Activation", "inbound_nodes": [[["conv_dw_4_bn", 0, 0, {}]]], "config": {"activation": "relu6", "trainable": true, "name": "conv_dw_4_relu"}, "name": "conv_dw_4_relu"}, {"class_name": "Conv2D", "inbound_nodes": [[["conv_dw_4_relu", 0, 0, {}]]], "config": {"kernel_initializer": {"class_name": "VarianceScaling", "config": {"distribution": "uniform", "scale": 1.0, "seed": null, "mode": "fan_avg"}}, "name": "conv_pw_4", "kernel_constraint": null, "bias_regularizer": null, "bias_constraint": null, "activation": "linear", "trainable": true, "data_format": "channels_last", "padding": "same", "strides": [1, 1], "dilation_rate": [1, 1], "kernel_regularizer": null, "filters": 256, "bias_initializer": {"class_name": "Zeros", "config": {}}, "use_bias": false, "activity_regularizer": null, "kernel_size": [1, 1]}, "name": "conv_pw_4"}, {"class_name": "BatchNormalization", "inbound_nodes": [[["conv_pw_4", 0, 0, {}]]], "config": {"gamma_initializer": {"class_name": "Ones", "config": {}}, "moving_mean_initializer": {"class_name": "Zeros", "config": {}}, "name": "conv_pw_4_bn", "epsilon": 0.001, "trainable": true, "center": true, "moving_variance_initializer": {"class_name": "Ones", "config": {}}, "beta_initializer": {"class_name": "Zeros", "config": {}}, "scale": true, "gamma_regularizer": null, "gamma_constraint": null, "beta_constraint": null, "beta_regularizer": null, "momentum": 0.99, "axis": -1}, "name": "conv_pw_4_bn"}, {"class_name": "Activation", "inbound_nodes": [[["conv_pw_4_bn", 0, 0, {}]]], "config": {"activation": "relu6", "trainable": true, "name": "conv_pw_4_relu"}, "name": "conv_pw_4_relu"}, {"class_name": "DepthwiseConv2D", "inbound_nodes": [[["conv_pw_4_relu", 0, 0, {}]]], "config": {"padding": "same", "depth_multiplier": 1, "name": "conv_dw_5", "bias_regularizer": null, "bias_constraint": null, "activation": "linear", "trainable": true, "data_format": "channels_last", "depthwise_constraint": null, "strides": [1, 1], "dilation_rate": [1, 1], "depthwise_initializer": {"class_name": "VarianceScaling", "config": {"distribution": "uniform", "scale": 1.0, "seed": null, "mode": "fan_avg"}}, "bias_initializer": {"class_name": "Zeros", "config": {}}, "depthwise_regularizer": null, "use_bias": false, "activity_regularizer": null, "kernel_size": [3, 3]}, "name": "conv_dw_5"}, {"class_name": "BatchNormalization", "inbound_nodes": [[["conv_dw_5", 0, 0, {}]]], "config": {"gamma_initializer": {"class_name": "Ones", "config": {}}, "moving_mean_initializer": {"class_name": "Zeros", "config": {}}, "name": "conv_dw_5_bn", "epsilon": 0.001, "trainable": true, "center": true, "moving_variance_initializer": {"class_name": "Ones", "config": {}}, "beta_initializer": {"class_name": "Zeros", "config": {}}, "scale": true, "gamma_regularizer": null, "gamma_constraint": null, "beta_constraint": null, "beta_regularizer": null, "momentum": 0.99, "axis": -1}, "name": "conv_dw_5_bn"}, {"class_name": "Activation", "inbound_nodes": [[["conv_dw_5_bn", 0, 0, {}]]], "config": {"activation": "relu6", "trainable": true, "name": "conv_dw_5_relu"}, "name": "conv_dw_5_relu"}, {"class_name": "Conv2D", "inbound_nodes": [[["conv_dw_5_relu", 0, 0, {}]]], "config": {"kernel_initializer": {"class_name": "VarianceScaling", "config": {"distribution": "uniform", "scale": 1.0, "seed": null, "mode": "fan_avg"}}, "name": "conv_pw_5", "kernel_constraint": null, "bias_regularizer": null, "bias_constraint": null, "activation": "linear", "trainable": true, "data_format": "channels_last", "padding": "same", "strides": [1, 1], "dilation_rate": [1, 1], "kernel_regularizer": null, "filters": 256, "bias_initializer": {"class_name": "Zeros", "config": {}}, "use_bias": false, "activity_regularizer": null, "kernel_size": [1, 1]}, "name": "conv_pw_5"}, {"class_name": "BatchNormalization", "inbound_nodes": [[["conv_pw_5", 0, 0, {}]]], "config": {"gamma_initializer": {"class_name": "Ones", "config": {}}, "moving_mean_initializer": {"class_name": "Zeros", "config": {}}, "name": "conv_pw_5_bn", "epsilon": 0.001, "trainable": true, "center": true, "moving_variance_initializer": {"class_name": "Ones", "config": {}}, "beta_initializer": {"class_name": "Zeros", "config": {}}, "scale": true, "gamma_regularizer": null, "gamma_constraint": null, "beta_constraint": null, "beta_regularizer": null, "momentum": 0.99, "axis": -1}, "name": "conv_pw_5_bn"}, {"class_name": "Activation", "inbound_nodes": [[["conv_pw_5_bn", 0, 0, {}]]], "config": {"activation": "relu6", "trainable": true, "name": "conv_pw_5_relu"}, "name": "conv_pw_5_relu"}, {"class_name": "DepthwiseConv2D", "inbound_nodes": [[["conv_pw_5_relu", 0, 0, {}]]], "config": {"padding": "same", "depth_multiplier": 1, "name": "conv_dw_6", "bias_regularizer": null, "bias_constraint": null, "activation": "linear", "trainable": true, "data_format": "channels_last", "depthwise_constraint": null, "strides": [2, 2], "dilation_rate": [1, 1], "depthwise_initializer": {"class_name": "VarianceScaling", "config": {"distribution": "uniform", "scale": 1.0, "seed": null, "mode": "fan_avg"}}, "bias_initializer": {"class_name": "Zeros", "config": {}}, "depthwise_regularizer": null, "use_bias": false, "activity_regularizer": null, "kernel_size": [3, 3]}, "name": "conv_dw_6"}, {"class_name": "BatchNormalization", "inbound_nodes": [[["conv_dw_6", 0, 0, {}]]], "config": {"gamma_initializer": {"class_name": "Ones", "config": {}}, "moving_mean_initializer": {"class_name": "Zeros", "config": {}}, "name": "conv_dw_6_bn", "epsilon": 0.001, "trainable": true, "center": true, "moving_variance_initializer": {"class_name": "Ones", "config": {}}, "beta_initializer": {"class_name": "Zeros", "config": {}}, "scale": true, "gamma_regularizer": null, "gamma_constraint": null, "beta_constraint": null, "beta_regularizer": null, "momentum": 0.99, "axis": -1}, "name": "conv_dw_6_bn"}, {"class_name": "Activation", "inbound_nodes": [[["conv_dw_6_bn", 0, 0, {}]]], "config": {"activation": "relu6", "trainable": true, "name": "conv_dw_6_relu"}, "name": "conv_dw_6_relu"}, {"class_name": "Conv2D", "inbound_nodes": [[["conv_dw_6_relu", 0, 0, {}]]], "config": {"kernel_initializer": {"class_name": "VarianceScaling", "config": {"distribution": "uniform", "scale": 1.0, "seed": null, "mode": "fan_avg"}}, "name": "conv_pw_6", "kernel_constraint": null, "bias_regularizer": null, "bias_constraint": null, "activation": "linear", "trainable": true, "data_format": "channels_last", "padding": "same", "strides": [1, 1], "dilation_rate": [1, 1], "kernel_regularizer": null, "filters": 512, "bias_initializer": {"class_name": "Zeros", "config": {}}, "use_bias": false, "activity_regularizer": null, "kernel_size": [1, 1]}, "name": "conv_pw_6"}, {"class_name": "BatchNormalization", "inbound_nodes": [[["conv_pw_6", 0, 0, {}]]], "config": {"gamma_initializer": {"class_name": "Ones", "config": {}}, "moving_mean_initializer": {"class_name": "Zeros", "config": {}}, "name": "conv_pw_6_bn", "epsilon": 0.001, "trainable": true, "center": true, "moving_variance_initializer": {"class_name": "Ones", "config": {}}, "beta_initializer": {"class_name": "Zeros", "config": {}}, "scale": true, "gamma_regularizer": null, "gamma_constraint": null, "beta_constraint": null, "beta_regularizer": null, "momentum": 0.99, "axis": -1}, "name": "conv_pw_6_bn"}, {"class_name": "Activation", "inbound_nodes": [[["conv_pw_6_bn", 0, 0, {}]]], "config": {"activation": "relu6", "trainable": true, "name": "conv_pw_6_relu"}, "name": "conv_pw_6_relu"}, {"class_name": "DepthwiseConv2D", "inbound_nodes": [[["conv_pw_6_relu", 0, 0, {}]]], "config": {"padding": "same", "depth_multiplier": 1, "name": "conv_dw_7", "bias_regularizer": null, "bias_constraint": null, "activation": "linear", "trainable": true, "data_format": "channels_last", "depthwise_constraint": null, "strides": [1, 1], "dilation_rate": [1, 1], "depthwise_initializer": {"class_name": "VarianceScaling", "config": {"distribution": "uniform", "scale": 1.0, "seed": null, "mode": "fan_avg"}}, "bias_initializer": {"class_name": "Zeros", "config": {}}, "depthwise_regularizer": null, "use_bias": false, "activity_regularizer": null, "kernel_size": [3, 3]}, "name": "conv_dw_7"}, {"class_name": "BatchNormalization", "inbound_nodes": [[["conv_dw_7", 0, 0, {}]]], "config": {"gamma_initializer": {"class_name": "Ones", "config": {}}, "moving_mean_initializer": {"class_name": "Zeros", "config": {}}, "name": "conv_dw_7_bn", "epsilon": 0.001, "trainable": true, "center": true, "moving_variance_initializer": {"class_name": "Ones", "config": {}}, "beta_initializer": {"class_name": "Zeros", "config": {}}, "scale": true, "gamma_regularizer": null, "gamma_constraint": null, "beta_constraint": null, "beta_regularizer": null, "momentum": 0.99, "axis": -1}, "name": "conv_dw_7_bn"}, {"class_name": "Activation", "inbound_nodes": [[["conv_dw_7_bn", 0, 0, {}]]], "config": {"activation": "relu6", "trainable": true, "name": "conv_dw_7_relu"}, "name": "conv_dw_7_relu"}, {"class_name": "Conv2D", "inbound_nodes": [[["conv_dw_7_relu", 0, 0, {}]]], "config": {"kernel_initializer": {"class_name": "VarianceScaling", "config": {"distribution": "uniform", "scale": 1.0, "seed": null, "mode": "fan_avg"}}, "name": "conv_pw_7", "kernel_constraint": null, "bias_regularizer": null, "bias_constraint": null, "activation": "linear", "trainable": true, "data_format": "channels_last", "padding": "same", "strides": [1, 1], "dilation_rate": [1, 1], "kernel_regularizer": null, "filters": 512, "bias_initializer": {"class_name": "Zeros", "config": {}}, "use_bias": false, "activity_regularizer": null, "kernel_size": [1, 1]}, "name": "conv_pw_7"}, {"class_name": "BatchNormalization", "inbound_nodes": [[["conv_pw_7", 0, 0, {}]]], "config": {"gamma_initializer": {"class_name": "Ones", "config": {}}, "moving_mean_initializer": {"class_name": "Zeros", "config": {}}, "name": "conv_pw_7_bn", "epsilon": 0.001, "trainable": true, "center": true, "moving_variance_initializer": {"class_name": "Ones", "config": {}}, "beta_initializer": {"class_name": "Zeros", "config": {}}, "scale": true, "gamma_regularizer": null, "gamma_constraint": null, "beta_constraint": null, "beta_regularizer": null, "momentum": 0.99, "axis": -1}, "name": "conv_pw_7_bn"}, {"class_name": "Activation", "inbound_nodes": [[["conv_pw_7_bn", 0, 0, {}]]], "config": {"activation": "relu6", "trainable": true, "name": "conv_pw_7_relu"}, "name": "conv_pw_7_relu"}, {"class_name": "DepthwiseConv2D", "inbound_nodes": [[["conv_pw_7_relu", 0, 0, {}]]], "config": {"padding": "same", "depth_multiplier": 1, "name": "conv_dw_8", "bias_regularizer": null, "bias_constraint": null, "activation": "linear", "trainable": true, "data_format": "channels_last", "depthwise_constraint": null, "strides": [1, 1], "dilation_rate": [1, 1], "depthwise_initializer": {"class_name": "VarianceScaling", "config": {"distribution": "uniform", "scale": 1.0, "seed": null, "mode": "fan_avg"}}, "bias_initializer": {"class_name": "Zeros", "config": {}}, "depthwise_regularizer": null, "use_bias": false, "activity_regularizer": null, "kernel_size": [3, 3]}, "name": "conv_dw_8"}, {"class_name": "BatchNormalization", "inbound_nodes": [[["conv_dw_8", 0, 0, {}]]], "config": {"gamma_initializer": {"class_name": "Ones", "config": {}}, "moving_mean_initializer": {"class_name": "Zeros", "config": {}}, "name": "conv_dw_8_bn", "epsilon": 0.001, "trainable": true, "center": true, "moving_variance_initializer": {"class_name": "Ones", "config": {}}, "beta_initializer": {"class_name": "Zeros", "config": {}}, "scale": true, "gamma_regularizer": null, "gamma_constraint": null, "beta_constraint": null, "beta_regularizer": null, "momentum": 0.99, "axis": -1}, "name": "conv_dw_8_bn"}, {"class_name": "Activation", "inbound_nodes": [[["conv_dw_8_bn", 0, 0, {}]]], "config": {"activation": "relu6", "trainable": true, "name": "conv_dw_8_relu"}, "name": "conv_dw_8_relu"}, {"class_name": "Conv2D", "inbound_nodes": [[["conv_dw_8_relu", 0, 0, {}]]], "config": {"kernel_initializer": {"class_name": "VarianceScaling", "config": {"distribution": "uniform", "scale": 1.0, "seed": null, "mode": "fan_avg"}}, "name": "conv_pw_8", "kernel_constraint": null, "bias_regularizer": null, "bias_constraint": null, "activation": "linear", "trainable": true, "data_format": "channels_last", "padding": "same", "strides": [1, 1], "dilation_rate": [1, 1], "kernel_regularizer": null, "filters": 512, "bias_initializer": {"class_name": "Zeros", "config": {}}, "use_bias": false, "activity_regularizer": null, "kernel_size": [1, 1]}, "name": "conv_pw_8"}, {"class_name": "BatchNormalization", "inbound_nodes": [[["conv_pw_8", 0, 0, {}]]], "config": {"gamma_initializer": {"class_name": "Ones", "config": {}}, "moving_mean_initializer": {"class_name": "Zeros", "config": {}}, "name": "conv_pw_8_bn", "epsilon": 0.001, "trainable": true, "center": true, "moving_variance_initializer": {"class_name": "Ones", "config": {}}, "beta_initializer": {"class_name": "Zeros", "config": {}}, "scale": true, "gamma_regularizer": null, "gamma_constraint": null, "beta_constraint": null, "beta_regularizer": null, "momentum": 0.99, "axis": -1}, "name": "conv_pw_8_bn"}, {"class_name": "Activation", "inbound_nodes": [[["conv_pw_8_bn", 0, 0, {}]]], "config": {"activation": "relu6", "trainable": true, "name": "conv_pw_8_relu"}, "name": "conv_pw_8_relu"}, {"class_name": "DepthwiseConv2D", "inbound_nodes": [[["conv_pw_8_relu", 0, 0, {}]]], "config": {"padding": "same", "depth_multiplier": 1, "name": "conv_dw_9", "bias_regularizer": null, "bias_constraint": null, "activation": "linear", "trainable": true, "data_format": "channels_last", "depthwise_constraint": null, "strides": [1, 1], "dilation_rate": [1, 1], "depthwise_initializer": {"class_name": "VarianceScaling", "config": {"distribution": "uniform", "scale": 1.0, "seed": null, "mode": "fan_avg"}}, "bias_initializer": {"class_name": "Zeros", "config": {}}, "depthwise_regularizer": null, "use_bias": false, "activity_regularizer": null, "kernel_size": [3, 3]}, "name": "conv_dw_9"}, {"class_name": "BatchNormalization", "inbound_nodes": [[["conv_dw_9", 0, 0, {}]]], "config": {"gamma_initializer": {"class_name": "Ones", "config": {}}, "moving_mean_initializer": {"class_name": "Zeros", "config": {}}, "name": "conv_dw_9_bn", "epsilon": 0.001, "trainable": true, "center": true, "moving_variance_initializer": {"class_name": "Ones", "config": {}}, "beta_initializer": {"class_name": "Zeros", "config": {}}, "scale": true, "gamma_regularizer": null, "gamma_constraint": null, "beta_constraint": null, "beta_regularizer": null, "momentum": 0.99, "axis": -1}, "name": "conv_dw_9_bn"}, {"class_name": "Activation", "inbound_nodes": [[["conv_dw_9_bn", 0, 0, {}]]], "config": {"activation": "relu6", "trainable": true, "name": "conv_dw_9_relu"}, "name": "conv_dw_9_relu"}, {"class_name": "Conv2D", "inbound_nodes": [[["conv_dw_9_relu", 0, 0, {}]]], "config": {"kernel_initializer": {"class_name": "VarianceScaling", "config": {"distribution": "uniform", "scale": 1.0, "seed": null, "mode": "fan_avg"}}, "name": "conv_pw_9", "kernel_constraint": null, "bias_regularizer": null, "bias_constraint": null, "activation": "linear", "trainable": true, "data_format": "channels_last", "padding": "same", "strides": [1, 1], "dilation_rate": [1, 1], "kernel_regularizer": null, "filters": 512, "bias_initializer": {"class_name": "Zeros", "config": {}}, "use_bias": false, "activity_regularizer": null, "kernel_size": [1, 1]}, "name": "conv_pw_9"}, {"class_name": "BatchNormalization", "inbound_nodes": [[["conv_pw_9", 0, 0, {}]]], "config": {"gamma_initializer": {"class_name": "Ones", "config": {}}, "moving_mean_initializer": {"class_name": "Zeros", "config": {}}, "name": "conv_pw_9_bn", "epsilon": 0.001, "trainable": true, "center": true, "moving_variance_initializer": {"class_name": "Ones", "config": {}}, "beta_initializer": {"class_name": "Zeros", "config": {}}, "scale": true, "gamma_regularizer": null, "gamma_constraint": null, "beta_constraint": null, "beta_regularizer": null, "momentum": 0.99, "axis": -1}, "name": "conv_pw_9_bn"}, {"class_name": "Activation", "inbound_nodes": [[["conv_pw_9_bn", 0, 0, {}]]], "config": {"activation": "relu6", "trainable": true, "name": "conv_pw_9_relu"}, "name": "conv_pw_9_relu"}, {"class_name": "DepthwiseConv2D", "inbound_nodes": [[["conv_pw_9_relu", 0, 0, {}]]], "config": {"padding": "same", "depth_multiplier": 1, "name": "conv_dw_10", "bias_regularizer": null, "bias_constraint": null, "activation": "linear", "trainable": true, "data_format": "channels_last", "depthwise_constraint": null, "strides": [1, 1], "dilation_rate": [1, 1], "depthwise_initializer": {"class_name": "VarianceScaling", "config": {"distribution": "uniform", "scale": 1.0, "seed": null, "mode": "fan_avg"}}, "bias_initializer": {"class_name": "Zeros", "config": {}}, "depthwise_regularizer": null, "use_bias": false, "activity_regularizer": null, "kernel_size": [3, 3]}, "name": "conv_dw_10"}, {"class_name": "BatchNormalization", "inbound_nodes": [[["conv_dw_10", 0, 0, {}]]], "config": {"gamma_initializer": {"class_name": "Ones", "config": {}}, "moving_mean_initializer": {"class_name": "Zeros", "config": {}}, "name": "conv_dw_10_bn", "epsilon": 0.001, "trainable": true, "center": true, "moving_variance_initializer": {"class_name": "Ones", "config": {}}, "beta_initializer": {"class_name": "Zeros", "config": {}}, "scale": true, "gamma_regularizer": null, "gamma_constraint": null, "beta_constraint": null, "beta_regularizer": null, "momentum": 0.99, "axis": -1}, "name": "conv_dw_10_bn"}, {"class_name": "Activation", "inbound_nodes": [[["conv_dw_10_bn", 0, 0, {}]]], "config": {"activation": "relu6", "trainable": true, "name": "conv_dw_10_relu"}, "name": "conv_dw_10_relu"}, {"class_name": "Conv2D", "inbound_nodes": [[["conv_dw_10_relu", 0, 0, {}]]], "config": {"kernel_initializer": {"class_name": "VarianceScaling", "config": {"distribution": "uniform", "scale": 1.0, "seed": null, "mode": "fan_avg"}}, "name": "conv_pw_10", "kernel_constraint": null, "bias_regularizer": null, "bias_constraint": null, "activation": "linear", "trainable": true, "data_format": "channels_last", "padding": "same", "strides": [1, 1], "dilation_rate": [1, 1], "kernel_regularizer": null, "filters": 512, "bias_initializer": {"class_name": "Zeros", "config": {}}, "use_bias": false, "activity_regularizer": null, "kernel_size": [1, 1]}, "name": "conv_pw_10"}, {"class_name": "BatchNormalization", "inbound_nodes": [[["conv_pw_10", 0, 0, {}]]], "config": {"gamma_initializer": {"class_name": "Ones", "config": {}}, "moving_mean_initializer": {"class_name": "Zeros", "config": {}}, "name": "conv_pw_10_bn", "epsilon": 0.001, "trainable": true, "center": true, "moving_variance_initializer": {"class_name": "Ones", "config": {}}, "beta_initializer": {"class_name": "Zeros", "config": {}}, "scale": true, "gamma_regularizer": null, "gamma_constraint": null, "beta_constraint": null, "beta_regularizer": null, "momentum": 0.99, "axis": -1}, "name": "conv_pw_10_bn"}, {"class_name": "Activation", "inbound_nodes": [[["conv_pw_10_bn", 0, 0, {}]]], "config": {"activation": "relu6", "trainable": true, "name": "conv_pw_10_relu"}, "name": "conv_pw_10_relu"}, {"class_name": "DepthwiseConv2D", "inbound_nodes": [[["conv_pw_10_relu", 0, 0, {}]]], "config": {"padding": "same", "depth_multiplier": 1, "name": "conv_dw_11", "bias_regularizer": null, "bias_constraint": null, "activation": "linear", "trainable": true, "data_format": "channels_last", "depthwise_constraint": null, "strides": [1, 1], "dilation_rate": [1, 1], "depthwise_initializer": {"class_name": "VarianceScaling", "config": {"distribution": "uniform", "scale": 1.0, "seed": null, "mode": "fan_avg"}}, "bias_initializer": {"class_name": "Zeros", "config": {}}, "depthwise_regularizer": null, "use_bias": false, "activity_regularizer": null, "kernel_size": [3, 3]}, "name": "conv_dw_11"}, {"class_name": "BatchNormalization", "inbound_nodes": [[["conv_dw_11", 0, 0, {}]]], "config": {"gamma_initializer": {"class_name": "Ones", "config": {}}, "moving_mean_initializer": {"class_name": "Zeros", "config": {}}, "name": "conv_dw_11_bn", "epsilon": 0.001, "trainable": true, "center": true, "moving_variance_initializer": {"class_name": "Ones", "config": {}}, "beta_initializer": {"class_name": "Zeros", "config": {}}, "scale": true, "gamma_regularizer": null, "gamma_constraint": null, "beta_constraint": null, "beta_regularizer": null, "momentum": 0.99, "axis": -1}, "name": "conv_dw_11_bn"}, {"class_name": "Activation", "inbound_nodes": [[["conv_dw_11_bn", 0, 0, {}]]], "config": {"activation": "relu6", "trainable": true, "name": "conv_dw_11_relu"}, "name": "conv_dw_11_relu"}, {"class_name": "Conv2D", "inbound_nodes": [[["conv_dw_11_relu", 0, 0, {}]]], "config": {"kernel_initializer": {"class_name": "VarianceScaling", "config": {"distribution": "uniform", "scale": 1.0, "seed": null, "mode": "fan_avg"}}, "name": "conv_pw_11", "kernel_constraint": null, "bias_regularizer": null, "bias_constraint": null, "activation": "linear", "trainable": true, "data_format": "channels_last", "padding": "same", "strides": [1, 1], "dilation_rate": [1, 1], "kernel_regularizer": null, "filters": 512, "bias_initializer": {"class_name": "Zeros", "config": {}}, "use_bias": false, "activity_regularizer": null, "kernel_size": [1, 1]}, "name": "conv_pw_11"}, {"class_name": "BatchNormalization", "inbound_nodes": [[["conv_pw_11", 0, 0, {}]]], "config": {"gamma_initializer": {"class_name": "Ones", "config": {}}, "moving_mean_initializer": {"class_name": "Zeros", "config": {}}, "name": "conv_pw_11_bn", "epsilon": 0.001, "trainable": true, "center": true, "moving_variance_initializer": {"class_name": "Ones", "config": {}}, "beta_initializer": {"class_name": "Zeros", "config": {}}, "scale": true, "gamma_regularizer": null, "gamma_constraint": null, "beta_constraint": null, "beta_regularizer": null, "momentum": 0.99, "axis": -1}, "name": "conv_pw_11_bn"}, {"class_name": "Activation", "inbound_nodes": [[["conv_pw_11_bn", 0, 0, {}]]], "config": {"activation": "relu6", "trainable": true, "name": "conv_pw_11_relu"}, "name": "conv_pw_11_relu"}, {"class_name": "DepthwiseConv2D", "inbound_nodes": [[["conv_pw_11_relu", 0, 0, {}]]], "config": {"padding": "same", "depth_multiplier": 1, "name": "conv_dw_12", "bias_regularizer": null, "bias_constraint": null, "activation": "linear", "trainable": true, "data_format": "channels_last", "depthwise_constraint": null, "strides": [2, 2], "dilation_rate": [1, 1], "depthwise_initializer": {"class_name": "VarianceScaling", "config": {"distribution": "uniform", "scale": 1.0, "seed": null, "mode": "fan_avg"}}, "bias_initializer": {"class_name": "Zeros", "config": {}}, "depthwise_regularizer": null, "use_bias": false, "activity_regularizer": null, "kernel_size": [3, 3]}, "name": "conv_dw_12"}, {"class_name": "BatchNormalization", "inbound_nodes": [[["conv_dw_12", 0, 0, {}]]], "config": {"gamma_initializer": {"class_name": "Ones", "config": {}}, "moving_mean_initializer": {"class_name": "Zeros", "config": {}}, "name": "conv_dw_12_bn", "epsilon": 0.001, "trainable": true, "center": true, "moving_variance_initializer": {"class_name": "Ones", "config": {}}, "beta_initializer": {"class_name": "Zeros", "config": {}}, "scale": true, "gamma_regularizer": null, "gamma_constraint": null, "beta_constraint": null, "beta_regularizer": null, "momentum": 0.99, "axis": -1}, "name": "conv_dw_12_bn"}, {"class_name": "Activation", "inbound_nodes": [[["conv_dw_12_bn", 0, 0, {}]]], "config": {"activation": "relu6", "trainable": true, "name": "conv_dw_12_relu"}, "name": "conv_dw_12_relu"}, {"class_name": "Conv2D", "inbound_nodes": [[["conv_dw_12_relu", 0, 0, {}]]], "config": {"kernel_initializer": {"class_name": "VarianceScaling", "config": {"distribution": "uniform", "scale": 1.0, "seed": null, "mode": "fan_avg"}}, "name": "conv_pw_12", "kernel_constraint": null, "bias_regularizer": null, "bias_constraint": null, "activation": "linear", "trainable": true, "data_format": "channels_last", "padding": "same", "strides": [1, 1], "dilation_rate": [1, 1], "kernel_regularizer": null, "filters": 1024, "bias_initializer": {"class_name": "Zeros", "config": {}}, "use_bias": false, "activity_regularizer": null, "kernel_size": [1, 1]}, "name": "conv_pw_12"}, {"class_name": "BatchNormalization", "inbound_nodes": [[["conv_pw_12", 0, 0, {}]]], "config": {"gamma_initializer": {"class_name": "Ones", "config": {}}, "moving_mean_initializer": {"class_name": "Zeros", "config": {}}, "name": "conv_pw_12_bn", "epsilon": 0.001, "trainable": true, "center": true, "moving_variance_initializer": {"class_name": "Ones", "config": {}}, "beta_initializer": {"class_name": "Zeros", "config": {}}, "scale": true, "gamma_regularizer": null, "gamma_constraint": null, "beta_constraint": null, "beta_regularizer": null, "momentum": 0.99, "axis": -1}, "name": "conv_pw_12_bn"}, {"class_name": "Activation", "inbound_nodes": [[["conv_pw_12_bn", 0, 0, {}]]], "config": {"activation": "relu6", "trainable": true, "name": "conv_pw_12_relu"}, "name": "conv_pw_12_relu"}, {"class_name": "DepthwiseConv2D", "inbound_nodes": [[["conv_pw_12_relu", 0, 0, {}]]], "config": {"padding": "same", "depth_multiplier": 1, "name": "conv_dw_13", "bias_regularizer": null, "bias_constraint": null, "activation": "linear", "trainable": true, "data_format": "channels_last", "depthwise_constraint": null, "strides": [1, 1], "dilation_rate": [1, 1], "depthwise_initializer": {"class_name": "VarianceScaling", "config": {"distribution": "uniform", "scale": 1.0, "seed": null, "mode": "fan_avg"}}, "bias_initializer": {"class_name": "Zeros", "config": {}}, "depthwise_regularizer": null, "use_bias": false, "activity_regularizer": null, "kernel_size": [3, 3]}, "name": "conv_dw_13"}, {"class_name": "BatchNormalization", "inbound_nodes": [[["conv_dw_13", 0, 0, {}]]], "config": {"gamma_initializer": {"class_name": "Ones", "config": {}}, "moving_mean_initializer": {"class_name": "Zeros", "config": {}}, "name": "conv_dw_13_bn", "epsilon": 0.001, "trainable": true, "center": true, "moving_variance_initializer": {"class_name": "Ones", "config": {}}, "beta_initializer": {"class_name": "Zeros", "config": {}}, "scale": true, "gamma_regularizer": null, "gamma_constraint": null, "beta_constraint": null, "beta_regularizer": null, "momentum": 0.99, "axis": -1}, "name": "conv_dw_13_bn"}, {"class_name": "Activation", "inbound_nodes": [[["conv_dw_13_bn", 0, 0, {}]]], "config": {"activation": "relu6", "trainable": true, "name": "conv_dw_13_relu"}, "name": "conv_dw_13_relu"}, {"class_name": "Conv2D", "inbound_nodes": [[["conv_dw_13_relu", 0, 0, {}]]], "config": {"kernel_initializer": {"class_name": "VarianceScaling", "config": {"distribution": "uniform", "scale": 1.0, "seed": null, "mode": "fan_avg"}}, "name": "conv_pw_13", "kernel_constraint": null, "bias_regularizer": null, "bias_constraint": null, "activation": "linear", "trainable": true, "data_format": "channels_last", "padding": "same", "strides": [1, 1], "dilation_rate": [1, 1], "kernel_regularizer": null, "filters": 1024, "bias_initializer": {"class_name": "Zeros", "config": {}}, "use_bias": false, "activity_regularizer": null, "kernel_size": [1, 1]}, "name": "conv_pw_13"}, {"class_name": "BatchNormalization", "inbound_nodes": [[["conv_pw_13", 0, 0, {}]]], "config": {"gamma_initializer": {"class_name": "Ones", "config": {}}, "moving_mean_initializer": {"class_name": "Zeros", "config": {}}, "name": "conv_pw_13_bn", "epsilon": 0.001, "trainable": true, "center": true, "moving_variance_initializer": {"class_name": "Ones", "config": {}}, "beta_initializer": {"class_name": "Zeros", "config": {}}, "scale": true, "gamma_regularizer": null, "gamma_constraint": null, "beta_constraint": null, "beta_regularizer": null, "momentum": 0.99, "axis": -1}, "name": "conv_pw_13_bn"}, {"class_name": "Activation", "inbound_nodes": [[["conv_pw_13_bn", 0, 0, {}]]], "config": {"activation": "relu6", "trainable": true, "name": "conv_pw_13_relu"}, "name": "conv_pw_13_relu"}, {"class_name": "Conv2DTranspose", "inbound_nodes": [[["conv_pw_13_relu", 0, 0, {}]]], "config": {"output_padding": null, "kernel_initializer": {"class_name": "VarianceScaling", "config": {"distribution": "uniform", "scale": 1.0, "seed": null, "mode": "fan_avg"}}, "name": "conv2d_transpose_1", "bias_regularizer": null, "bias_constraint": null, "activation": "linear", "trainable": true, "data_format": "channels_last", "padding": "same", "strides": [2, 2], "dilation_rate": [1, 1], "kernel_regularizer": null, "filters": 512, "bias_initializer": {"class_name": "Zeros", "config": {}}, "kernel_constraint": null, "use_bias": true, "activity_regularizer": null, "kernel_size": [2, 2]}, "name": "conv2d_transpose_1"}, {"class_name": "Concatenate", "inbound_nodes": [[["conv2d_transpose_1", 0, 0, {}], ["conv_pw_11_relu", 0, 0, {}]]], "config": {"trainable": true, "name": "concatenate_1", "axis": 3}, "name": "concatenate_1"}, {"class_name": "DepthwiseConv2D", "inbound_nodes": [[["concatenate_1", 0, 0, {}]]], "config": {"padding": "same", "depth_multiplier": 1, "name": "conv_dw_14", "bias_regularizer": null, "bias_constraint": null, "activation": "linear", "trainable": true, "data_format": "channels_last", "depthwise_constraint": null, "strides": [1, 1], "dilation_rate": [1, 1], "depthwise_initializer": {"class_name": "VarianceScaling", "config": {"distribution": "uniform", "scale": 1.0, "seed": null, "mode": "fan_avg"}}, "bias_initializer": {"class_name": "Zeros", "config": {}}, "depthwise_regularizer": null, "use_bias": false, "activity_regularizer": null, "kernel_size": [3, 3]}, "name": "conv_dw_14"}, {"class_name": "BatchNormalization", "inbound_nodes": [[["conv_dw_14", 0, 0, {}]]], "config": {"gamma_initializer": {"class_name": "Ones", "config": {}}, "moving_mean_initializer": {"class_name": "Zeros", "config": {}}, "name": "conv_dw_14_bn", "epsilon": 0.001, "trainable": true, "center": true, "moving_variance_initializer": {"class_name": "Ones", "config": {}}, "beta_initializer": {"class_name": "Zeros", "config": {}}, "scale": true, "gamma_regularizer": null, "gamma_constraint": null, "beta_constraint": null, "beta_regularizer": null, "momentum": 0.99, "axis": -1}, "name": "conv_dw_14_bn"}, {"class_name": "Activation", "inbound_nodes": [[["conv_dw_14_bn", 0, 0, {}]]], "config": {"activation": "relu6", "trainable": true, "name": "conv_dw_14_relu"}, "name": "conv_dw_14_relu"}, {"class_name": "Conv2D", "inbound_nodes": [[["conv_dw_14_relu", 0, 0, {}]]], "config": {"kernel_initializer": {"class_name": "VarianceScaling", "config": {"distribution": "uniform", "scale": 1.0, "seed": null, "mode": "fan_avg"}}, "name": "conv_pw_14", "kernel_constraint": null, "bias_regularizer": null, "bias_constraint": null, "activation": "linear", "trainable": true, "data_format": "channels_last", "padding": "same", "strides": [1, 1], "dilation_rate": [1, 1], "kernel_regularizer": null, "filters": 512, "bias_initializer": {"class_name": "Zeros", "config": {}}, "use_bias": false, "activity_regularizer": null, "kernel_size": [1, 1]}, "name": "conv_pw_14"}, {"class_name": "BatchNormalization", "inbound_nodes": [[["conv_pw_14", 0, 0, {}]]], "config": {"gamma_initializer": {"class_name": "Ones", "config": {}}, "moving_mean_initializer": {"class_name": "Zeros", "config": {}}, "name": "conv_pw_14_bn", "epsilon": 0.001, "trainable": true, "center": true, "moving_variance_initializer": {"class_name": "Ones", "config": {}}, "beta_initializer": {"class_name": "Zeros", "config": {}}, "scale": true, "gamma_regularizer": null, "gamma_constraint": null, "beta_constraint": null, "beta_regularizer": null, "momentum": 0.99, "axis": -1}, "name": "conv_pw_14_bn"}, {"class_name": "Activation", "inbound_nodes": [[["conv_pw_14_bn", 0, 0, {}]]], "config": {"activation": "relu6", "trainable": true, "name": "conv_pw_14_relu"}, "name": "conv_pw_14_relu"}, {"class_name": "Conv2DTranspose", "inbound_nodes": [[["conv_pw_14_relu", 0, 0, {}]]], "config": {"output_padding": null, "kernel_initializer": {"class_name": "VarianceScaling", "config": {"distribution": "uniform", "scale": 1.0, "seed": null, "mode": "fan_avg"}}, "name": "conv2d_transpose_2", "bias_regularizer": null, "bias_constraint": null, "activation": "linear", "trainable": true, "data_format": "channels_last", "padding": "same", "strides": [2, 2], "dilation_rate": [1, 1], "kernel_regularizer": null, "filters": 256, "bias_initializer": {"class_name": "Zeros", "config": {}}, "kernel_constraint": null, "use_bias": true, "activity_regularizer": null, "kernel_size": [2, 2]}, "name": "conv2d_transpose_2"}, {"class_name": "Concatenate", "inbound_nodes": [[["conv2d_transpose_2", 0, 0, {}], ["conv_pw_5_relu", 0, 0, {}]]], "config": {"trainable": true, "name": "concatenate_2", "axis": 3}, "name": "concatenate_2"}, {"class_name": "DepthwiseConv2D", "inbound_nodes": [[["concatenate_2", 0, 0, {}]]], "config": {"padding": "same", "depth_multiplier": 1, "name": "conv_dw_15", "bias_regularizer": null, "bias_constraint": null, "activation": "linear", "trainable": true, "data_format": "channels_last", "depthwise_constraint": null, "strides": [1, 1], "dilation_rate": [1, 1], "depthwise_initializer": {"class_name": "VarianceScaling", "config": {"distribution": "uniform", "scale": 1.0, "seed": null, "mode": "fan_avg"}}, "bias_initializer": {"class_name": "Zeros", "config": {}}, "depthwise_regularizer": null, "use_bias": false, "activity_regularizer": null, "kernel_size": [3, 3]}, "name": "conv_dw_15"}, {"class_name": "BatchNormalization", "inbound_nodes": [[["conv_dw_15", 0, 0, {}]]], "config": {"gamma_initializer": {"class_name": "Ones", "config": {}}, "moving_mean_initializer": {"class_name": "Zeros", "config": {}}, "name": "conv_dw_15_bn", "epsilon": 0.001, "trainable": true, "center": true, "moving_variance_initializer": {"class_name": "Ones", "config": {}}, "beta_initializer": {"class_name": "Zeros", "config": {}}, "scale": true, "gamma_regularizer": null, "gamma_constraint": null, "beta_constraint": null, "beta_regularizer": null, "momentum": 0.99, "axis": -1}, "name": "conv_dw_15_bn"}, {"class_name": "Activation", "inbound_nodes": [[["conv_dw_15_bn", 0, 0, {}]]], "config": {"activation": "relu6", "trainable": true, "name": "conv_dw_15_relu"}, "name": "conv_dw_15_relu"}, {"class_name": "Conv2D", "inbound_nodes": [[["conv_dw_15_relu", 0, 0, {}]]], "config": {"kernel_initializer": {"class_name": "VarianceScaling", "config": {"distribution": "uniform", "scale": 1.0, "seed": null, "mode": "fan_avg"}}, "name": "conv_pw_15", "kernel_constraint": null, "bias_regularizer": null, "bias_constraint": null, "activation": "linear", "trainable": true, "data_format": "channels_last", "padding": "same", "strides": [1, 1], "dilation_rate": [1, 1], "kernel_regularizer": null, "filters": 256, "bias_initializer": {"class_name": "Zeros", "config": {}}, "use_bias": false, "activity_regularizer": null, "kernel_size": [1, 1]}, "name": "conv_pw_15"}, {"class_name": "BatchNormalization", "inbound_nodes": [[["conv_pw_15", 0, 0, {}]]], "config": {"gamma_initializer": {"class_name": "Ones", "config": {}}, "moving_mean_initializer": {"class_name": "Zeros", "config": {}}, "name": "conv_pw_15_bn", "epsilon": 0.001, "trainable": true, "center": true, "moving_variance_initializer": {"class_name": "Ones", "config": {}}, "beta_initializer": {"class_name": "Zeros", "config": {}}, "scale": true, "gamma_regularizer": null, "gamma_constraint": null, "beta_constraint": null, "beta_regularizer": null, "momentum": 0.99, "axis": -1}, "name": "conv_pw_15_bn"}, {"class_name": "Activation", "inbound_nodes": [[["conv_pw_15_bn", 0, 0, {}]]], "config": {"activation": "relu6", "trainable": true, "name": "conv_pw_15_relu"}, "name": "conv_pw_15_relu"}, {"class_name": "Conv2DTranspose", "inbound_nodes": [[["conv_pw_15_relu", 0, 0, {}]]], "config": {"output_padding": null, "kernel_initializer": {"class_name": "VarianceScaling", "config": {"distribution": "uniform", "scale": 1.0, "seed": null, "mode": "fan_avg"}}, "name": "conv2d_transpose_3", "bias_regularizer": null, "bias_constraint": null, "activation": "linear", "trainable": true, "data_format": "channels_last", "padding": "same", "strides": [2, 2], "dilation_rate": [1, 1], "kernel_regularizer": null, "filters": 128, "bias_initializer": {"class_name": "Zeros", "config": {}}, "kernel_constraint": null, "use_bias": true, "activity_regularizer": null, "kernel_size": [2, 2]}, "name": "conv2d_transpose_3"}, {"class_name": "Concatenate", "inbound_nodes": [[["conv2d_transpose_3", 0, 0, {}], ["conv_pw_3_relu", 0, 0, {}]]], "config": {"trainable": true, "name": "concatenate_3", "axis": 3}, "name": "concatenate_3"}, {"class_name": "DepthwiseConv2D", "inbound_nodes": [[["concatenate_3", 0, 0, {}]]], "config": {"padding": "same", "depth_multiplier": 1, "name": "conv_dw_16", "bias_regularizer": null, "bias_constraint": null, "activation": "linear", "trainable": true, "data_format": "channels_last", "depthwise_constraint": null, "strides": [1, 1], "dilation_rate": [1, 1], "depthwise_initializer": {"class_name": "VarianceScaling", "config": {"distribution": "uniform", "scale": 1.0, "seed": null, "mode": "fan_avg"}}, "bias_initializer": {"class_name": "Zeros", "config": {}}, "depthwise_regularizer": null, "use_bias": false, "activity_regularizer": null, "kernel_size": [3, 3]}, "name": "conv_dw_16"}, {"class_name": "BatchNormalization", "inbound_nodes": [[["conv_dw_16", 0, 0, {}]]], "config": {"gamma_initializer": {"class_name": "Ones", "config": {}}, "moving_mean_initializer": {"class_name": "Zeros", "config": {}}, "name": "conv_dw_16_bn", "epsilon": 0.001, "trainable": true, "center": true, "moving_variance_initializer": {"class_name": "Ones", "config": {}}, "beta_initializer": {"class_name": "Zeros", "config": {}}, "scale": true, "gamma_regularizer": null, "gamma_constraint": null, "beta_constraint": null, "beta_regularizer": null, "momentum": 0.99, "axis": -1}, "name": "conv_dw_16_bn"}, {"class_name": "Activation", "inbound_nodes": [[["conv_dw_16_bn", 0, 0, {}]]], "config": {"activation": "relu6", "trainable": true, "name": "conv_dw_16_relu"}, "name": "conv_dw_16_relu"}, {"class_name": "Conv2D", "inbound_nodes": [[["conv_dw_16_relu", 0, 0, {}]]], "config": {"kernel_initializer": {"class_name": "VarianceScaling", "config": {"distribution": "uniform", "scale": 1.0, "seed": null, "mode": "fan_avg"}}, "name": "conv_pw_16", "kernel_constraint": null, "bias_regularizer": null, "bias_constraint": null, "activation": "linear", "trainable": true, "data_format": "channels_last", "padding": "same", "strides": [1, 1], "dilation_rate": [1, 1], "kernel_regularizer": null, "filters": 128, "bias_initializer": {"class_name": "Zeros", "config": {}}, "use_bias": false, "activity_regularizer": null, "kernel_size": [1, 1]}, "name": "conv_pw_16"}, {"class_name": "BatchNormalization", "inbound_nodes": [[["conv_pw_16", 0, 0, {}]]], "config": {"gamma_initializer": {"class_name": "Ones", "config": {}}, "moving_mean_initializer": {"class_name": "Zeros", "config": {}}, "name": "conv_pw_16_bn", "epsilon": 0.001, "trainable": true, "center": true, "moving_variance_initializer": {"class_name": "Ones", "config": {}}, "beta_initializer": {"class_name": "Zeros", "config": {}}, "scale": true, "gamma_regularizer": null, "gamma_constraint": null, "beta_constraint": null, "beta_regularizer": null, "momentum": 0.99, "axis": -1}, "name": "conv_pw_16_bn"}, {"class_name": "Activation", "inbound_nodes": [[["conv_pw_16_bn", 0, 0, {}]]], "config": {"activation": "relu6", "trainable": true, "name": "conv_pw_16_relu"}, "name": "conv_pw_16_relu"}, {"class_name": "Conv2DTranspose", "inbound_nodes": [[["conv_pw_16_relu", 0, 0, {}]]], "config": {"output_padding": null, "kernel_initializer": {"class_name": "VarianceScaling", "config": {"distribution": "uniform", "scale": 1.0, "seed": null, "mode": "fan_avg"}}, "name": "conv2d_transpose_4", "bias_regularizer": null, "bias_constraint": null, "activation": "linear", "trainable": true, "data_format": "channels_last", "padding": "same", "strides": [2, 2], "dilation_rate": [1, 1], "kernel_regularizer": null, "filters": 64, "bias_initializer": {"class_name": "Zeros", "config": {}}, "kernel_constraint": null, "use_bias": true, "activity_regularizer": null, "kernel_size": [2, 2]}, "name": "conv2d_transpose_4"}, {"class_name": "Concatenate", "inbound_nodes": [[["conv2d_transpose_4", 0, 0, {}], ["conv_pw_1_relu", 0, 0, {}]]], "config": {"trainable": true, "name": "concatenate_4", "axis": 3}, "name": "concatenate_4"}, {"class_name": "DepthwiseConv2D", "inbound_nodes": [[["concatenate_4", 0, 0, {}]]], "config": {"padding": "same", "depth_multiplier": 1, "name": "conv_dw_17", "bias_regularizer": null, "bias_constraint": null, "activation": "linear", "trainable": true, "data_format": "channels_last", "depthwise_constraint": null, "strides": [1, 1], "dilation_rate": [1, 1], "depthwise_initializer": {"class_name": "VarianceScaling", "config": {"distribution": "uniform", "scale": 1.0, "seed": null, "mode": "fan_avg"}}, "bias_initializer": {"class_name": "Zeros", "config": {}}, "depthwise_regularizer": null, "use_bias": false, "activity_regularizer": null, "kernel_size": [3, 3]}, "name": "conv_dw_17"}, {"class_name": "BatchNormalization", "inbound_nodes": [[["conv_dw_17", 0, 0, {}]]], "config": {"gamma_initializer": {"class_name": "Ones", "config": {}}, "moving_mean_initializer": {"class_name": "Zeros", "config": {}}, "name": "conv_dw_17_bn", "epsilon": 0.001, "trainable": true, "center": true, "moving_variance_initializer": {"class_name": "Ones", "config": {}}, "beta_initializer": {"class_name": "Zeros", "config": {}}, "scale": true, "gamma_regularizer": null, "gamma_constraint": null, "beta_constraint": null, "beta_regularizer": null, "momentum": 0.99, "axis": -1}, "name": "conv_dw_17_bn"}, {"class_name": "Activation", "inbound_nodes": [[["conv_dw_17_bn", 0, 0, {}]]], "config": {"activation": "relu6", "trainable": true, "name": "conv_dw_17_relu"}, "name": "conv_dw_17_relu"}, {"class_name": "Conv2D", "inbound_nodes": [[["conv_dw_17_relu", 0, 0, {}]]], "config": {"kernel_initializer": {"class_name": "VarianceScaling", "config": {"distribution": "uniform", "scale": 1.0, "seed": null, "mode": "fan_avg"}}, "name": "conv_pw_17", "kernel_constraint": null, "bias_regularizer": null, "bias_constraint": null, "activation": "linear", "trainable": true, "data_format": "channels_last", "padding": "same", "strides": [1, 1], "dilation_rate": [1, 1], "kernel_regularizer": null, "filters": 64, "bias_initializer": {"class_name": "Zeros", "config": {}}, "use_bias": false, "activity_regularizer": null, "kernel_size": [1, 1]}, "name": "conv_pw_17"}, {"class_name": "BatchNormalization", "inbound_nodes": [[["conv_pw_17", 0, 0, {}]]], "config": {"gamma_initializer": {"class_name": "Ones", "config": {}}, "moving_mean_initializer": {"class_name": "Zeros", "config": {}}, "name": "conv_pw_17_bn", "epsilon": 0.001, "trainable": true, "center": true, "moving_variance_initializer": {"class_name": "Ones", "config": {}}, "beta_initializer": {"class_name": "Zeros", "config": {}}, "scale": true, "gamma_regularizer": null, "gamma_constraint": null, "beta_constraint": null, "beta_regularizer": null, "momentum": 0.99, "axis": -1}, "name": "conv_pw_17_bn"}, {"class_name": "Activation", "inbound_nodes": [[["conv_pw_17_bn", 0, 0, {}]]], "config": {"activation": "relu6", "trainable": true, "name": "conv_pw_17_relu"}, "name": "conv_pw_17_relu"}, {"class_name": "Concatenate", "inbound_nodes": [[["conv_pw_17_relu", 0, 0, {}], ["conv_0_relu", 0, 0, {}]]], "config": {"trainable": true, "name": "concatenate_5", "axis": 3}, "name": "concatenate_5"}, {"class_name": "Conv2D", "inbound_nodes": [[["concatenate_5", 0, 0, {}]]], "config": {"kernel_initializer": {"class_name": "VarianceScaling", "config": {"distribution": "uniform", "scale": 1.0, "seed": null, "mode": "fan_avg"}}, "name": "conv_18", "kernel_constraint": null, "bias_regularizer": null, "bias_constraint": null, "activation": "linear", "trainable": true, "data_format": "channels_last", "padding": "same", "strides": [1, 1], "dilation_rate": [1, 1], "kernel_regularizer": null, "filters": 32, "bias_initializer": {"class_name": "Zeros", "config": {}}, "use_bias": false, "activity_regularizer": null, "kernel_size": [3, 3]}, "name": "conv_18"}, {"class_name": "BatchNormalization", "inbound_nodes": [[["conv_18", 0, 0, {}]]], "config": {"gamma_initializer": {"class_name": "Ones", "config": {}}, "moving_mean_initializer": {"class_name": "Zeros", "config": {}}, "name": "conv_18_bn", "epsilon": 0.001, "trainable": true, "center": true, "moving_variance_initializer": {"class_name": "Ones", "config": {}}, "beta_initializer": {"class_name": "Zeros", "config": {}}, "scale": true, "gamma_regularizer": null, "gamma_constraint": null, "beta_constraint": null, "beta_regularizer": null, "momentum": 0.99, "axis": -1}, "name": "conv_18_bn"}, {"class_name": "Activation", "inbound_nodes": [[["conv_18_bn", 0, 0, {}]]], "config": {"activation": "relu6", "trainable": true, "name": "conv_18_relu"}, "name": "conv_18_relu"}, {"class_name": "Conv2D", "inbound_nodes": [[["conv_18_relu", 0, 0, {}]]], "config": {"kernel_initializer": {"class_name": "VarianceScaling", "config": {"distribution": "normal", "scale": 2.0, "seed": null, "mode": "fan_in"}}, "name": "conv2d_1", "kernel_constraint": null, "bias_regularizer": null, "bias_constraint": null, "activation": "linear", "trainable": true, "data_format": "channels_last", "padding": "valid", "strides": [1, 1], "dilation_rate": [1, 1], "kernel_regularizer": null, "filters": 1, "bias_initializer": {"class_name": "Zeros", "config": {}}, "use_bias": true, "activity_regularizer": null, "kernel_size": [1, 1]}, "name": "conv2d_1"}, {"class_name": "UpSampling2D", "inbound_nodes": [[["conv2d_1", 0, 0, {}]]], "config": {"size": [2, 2], "trainable": true, "data_format": "channels_last", "name": "up_sampling2d_1", "interpolation": "nearest"}, "name": "up_sampling2d_1"}, {"class_name": "Activation", "inbound_nodes": [[["up_sampling2d_1", 0, 0, {}]]], "config": {"activation": "sigmoid", "trainable": true, "name": "activation_1"}, "name": "activation_1"}], "input_layers": [["input_1", 0, 0]], "name": "model_1", "output_layers": [["activation_1", 0, 0]]}}, "backend": "tensorflow"}, "generatedBy": "keras v2.2.4", "convertedBy": "TensorFlow.js Converter v1.3.2", "format": "layers-model"}